openfhe/notebooks/lenet_16/best.pth (torch, 579576 bytes, 4 tensors)

conv1.weight f4 [16, 3, 3, 3]
000000 89 d6 e2 3e 0c b1 25 3f a4 21 4e bf 6b 75 0f bd
       0.44304302 0.6472328 -0.8052008 -0.035024088
000010 db aa 93 3e 75 25 54 bf f1 f3 f4 be 0d 41 3c bf
       0.2884129 -0.82869655 -0.47842363 -0.7353676
000020 3a 9b 32 3f 09 dd 81 bf 77 e5 23 bf da dc 62 bf
       0.69768107 -1.014558 -0.6402201 -0.8861824
000030 22 fd 77 bf b8 18 92 bd 46 4b 42 bf 07 11 33 bf
       -0.96870625 -0.07133621 -0.7589611 -0.69947857
000040 82 6e 98 bd cb de fa 3f 82 79 f6 bf 82 bc 32 bf
       -0.07442953 1.9599241 -1.9255831 -0.6981889
000050 8d 68 b3 be a2 23 92 3e 98 e8 c6 3f 08 16 53 3f
       -0.35040703 0.2854281 1.5539732 0.8245549
000060 5f 04 58 3d ad e4 31 3f 69 4a f5 3f 79 bf c2 bf
       0.052738544 0.69489557 1.9163333 -1.5214683
000070 8f e3 1c 3f 0e d0 06 bd c8 ed d2 bd 0c 33 ad 3e
       0.61284727 -0.03291326 -0.102992594 0.33828008
000080 f5 cb 97 3e 32 fc 65 3f 01 c6 67 bf 09 fd db bf
       0.29647794 0.89837945 -0.90536505 -1.7186595
000090 72 3a e6 bf f0 f6 8d 3f 00 f6 ae be eb ab 11 bd
       -1.7986586 1.1090984 -0.34172058 -0.035564344
0000a0 83 e1 1e 3f 80 c0 0b 3e 32 04 3d 3f fd e4 11 bf
       0.62062854 0.13647652 0.73834527 -0.56990033
0000b0 1c 9d da bf 0c 21 d5 bf a7 a0 d9 3f 1c e7 cf 3e
       -1.7079196 -1.665071 1.7002152 0.4060601
0000c0 d0 2b 14 be 7b 69 b2 3f 65 1a 9f 3f b2 48 aa 3f
       -0.14469838 1.393844 1.242993 1.3303435
0000d0 7e df 09 3f 10 06 69 bf df c2 b0 3d 95 a0 71 bc
       0.53856647 -0.91024876 0.08630919 -0.014747758
0000e0 7c d0 d7 be 12 66 7d be 9e 61 03 3e 74 e8 15 3f
       -0.42151248 -0.24745968 0.12830207 0.5855782
0000f0 15 01 c8 3f af c5 b2 bf eb cb 9c be d8 c2 c0 3d
       1.562533 -1.3966578 -0.30624327 0.094121635
000100 29 59 95 3e 54 33 76 bf d9 ff 59 3d 21 35 e2 3e
       0.29169586 -0.9617207 0.05322251 0.4418116
000110 e8 58 af 3e ed f7 da 3f 83 a0 b7 bf 98 71 3c bf
       0.34247518 1.7106911 -1.4345859 -0.7361083
000120 bb be 06 3f 95 5c 3c 3f 73 b5 c2 bf e1 92 59 3f
       0.5263478 0.7357877 -1.5211624 0.84989744
000130 d0 ff 5e 3f 39 56 5c bf 9f fa ed 3f cf ad 8a bf
       0.8710909 -0.86069065 1.8592108 -1.0834292
000140 f2 f2 97 bf 34 29 8c 3f 35 93 81 40 99 08 59 3f
       -1.1871016 1.0950074 4.0492196 0.84778744
000150 87 23 a8 be f4 3a a4 bf 47 9b 0c c0 ca c5 ba bf
       -0.32839605 -1.2830491 -2.1969774 -1.459161
000160 80 9c c6 3e 46 77 51 bf cc 04 2b bf 53 2f 1e 40
       0.38791275 -0.8182262 -0.66804194 2.4716384
000170 51 ff a4 b9 95 10 43 bf 19 ed aa bf ae 23 13 c0
       -0.00031470743 -0.7619718 -1.3353606 -2.2990527
000180 73 18 a6 be 6a 02 fb 3f bc b4 a2 3e bb 93 a5 bf
       -0.32440528 1.9610112 0.31778514 -1.2935709
000190 3a ec c8 3f 66 cb fc 3c 31 d4 1c bf fa 9e 9a bf
       1.5697091 0.030858707 -0.6126128 -1.2079766
0001a0 23 51 b3 bf b3 af fe 3d 0f 64 00 40 19 57 81 3f
       -1.4009136 0.12435856 2.006107 1.0104705
0001b0 c7 de c1 3e 8e a2 3e 3f d9 24 b8 bf 14 d0 c2 3f
       0.37865278 0.7446679 -1.4386245 1.521975
0001c0 02 64 1f 3f 3e bd 20 40 b5 d1 b4 3f 37 d1 13 c0
       0.62261975 2.5115504 1.4126498 -2.3096445
0001d0 1e 56 88 3d 1b 31 7b be 11 2d 98 bd 25 56 ed bf
       0.066570505 -0.24530451 -0.07430471 -1.8541914
0001e0 e0 2b 04 3e 18 5e 7c bf 32 8d 38 3f 2c ed e8 3e
       0.12907362 -0.98581076 0.72090447 0.45493448
0001f0 c1 77 65 c0 20 7c a4 bf 54 df 64 bf 4f 9e d5 bd
       -3.5854342 -1.285038 -0.8940327 -0.104305856
000200 00 aa f5 bf b5 38 9c be a5 bb 10 3f ca 4f 21 40
       -1.9192505 -0.30512014 0.5653632 2.520495
000210 dc c3 13 3f a0 0e 54 bf 1b 0a c6 3f 46 a9 22 c0
       0.5772073 -0.82834816 1.5471834 -2.5415816
000220 18 6e 79 bf 88 7e 06 c0 3c b8 de 3f 81 87 22 40
       -0.97433615 -2.1014729 1.7399974 2.5395205
000230 68 64 92 3e 0a 88 a3 be 04 49 7d 40 e1 3d bd 3f
       0.2859223 -0.31939727 3.9575815 1.4784509
000240 ad a2 55 bf 4a 0f 45 bf f6 21 34 be fc 19 9e 3f
       -0.8345135 -0.76976454 -0.1759108 1.235168
000250 89 0f a7 bf 91 8d bb bf 2e 88 9e bf d2 98 80 3e
       -1.3051616 -1.4652578 -1.2385309 0.25116593
000260 75 ac f2 3e 18 78 09 40 37 1d 12 40 c2 c0 9a 3f
       0.473972 2.147955 2.2830331 1.2090075
000270 27 33 00 40 0c f1 ce bf c9 3d cc bf fc 3f 06 c0
       2.003122 -1.6167312 -1.5956355 -2.0976553
000280 64 ef cc bf 6e 5c 42 bf 65 e5 46 be 9c 50 08 40
       -1.6010556 -0.75922287 -0.19423445 2.12992
000290 96 e8 25 c0 b5 63 d5 bf d4 ce 60 bc 17 29 01 40
       -2.592321 -1.6671053 -0.013721187 2.018133
0002a0 cc f4 a0 3f 69 0e 07 c0 96 07 7f 3e b6 3e 96 be
       1.2574706 -2.1102545 0.24905238 -0.2934472
0002b0 8f 15 41 40 44 d3 eb bf f3 48 04 c0 05 5b de 3d
       3.0169408 -1.8423848 -2.0669525 0.10857204
0002c0 5e e5 17 40 12 d5 b3 3f cf 60 03 c0 51 66 08 3d
       2.3733745 1.4049399 -2.0527837 0.0333007
0002d0 5a ae 2d bf db cc 29 40 c7 00 e8 bf e0 e6 ef bf
       -0.67844164 2.6531284 -1.8125237 -1.8742332
0002e0 e8 91 d6 3e 43 ea 02 40 67 aa 86 3f 5c 4e e6 bf
       0.41908193 2.0455482 1.0520753 -1.7992663
0002f0 d1 68 9d bd 42 ba 60 3e 49 89 80 3f e9 b3 dd 3e
       -0.07686008 0.21946052 1.0041896 0.43301323
000300 ab 96 cf 3f 0b df 95 be f0 85 8a bf 9a 59 17 bf
       1.6217855 -0.2927173 -1.0822124 -0.59121096
000310 00 8e c8 bd 1c 54 ce 3f d3 2d 88 bf 1a 0d 0a bf
       -0.09792709 1.6119418 -1.0638984 -0.5392624
000320 c7 e0 27 bf c0 d5 3f 3f 34 35 d9 bf 94 5e f4 bf
       -0.6557736 0.7493553 -1.6969361 -1.9091363
000330 6d 58 94 bf fb 03 72 be ab 42 93 3f e6 e2 4c 3f
       -1.1589485 -0.23634331 1.150472 0.8003372
000340 80 6d 13 40 84 61 b2 3f ae ec 67 3f 59 9f 43 3e
       2.3035583 1.393601 0.9059552 0.19103755
000350 ee 6c 11 3e 0a 3f 30 c0 87 1f 45 bf 54 73 da 3f
       0.1420171 -2.7538476 -0.7700123 1.7066445
000360 25 d8 96 be 3a 53 f6 bf 97 40 b4 3f 77 6b ff bf
       -0.2946178 -1.9244149 1.4082211 -1.9954671
000370 36 cc 0f 3f 1e 8e 13 40 cb 32 b8 3f 99 62 05 40
       0.56170976 2.3055491 1.4390501 2.084143
000380 20 72 34 c0 49 d0 1c 3f c4 66 b2 bf 60 27 a0 3f
       -2.8194656 0.6125532 -1.3937612 1.2512016
000390 4c 23 ea bf 8d d4 cb 3e e4 15 df 3f 3e 1a 99 3f
       -1.8292022 0.398106 1.7428555 1.1961133
0003a0 4a 8d 9c 3f a9 71 54 c0 a7 8e 5e 3f a3 94 a0 bf
       1.2230618 -3.3194373 0.8693642 -1.254536
0003b0 43 0d ef 3e 22 d6 ef bf c4 0f a5 3d 9c 96 9f 3f
       0.46689805 -1.8737223 0.08059648 1.2467837
0003c0 b6 60 8c 3f 09 ee c3 3f cd c6 11 c0 55 93 9b 3e
       1.0967014 1.5307018 -2.2777588 0.30385843
0003d0 61 58 62 3e 8f 84 4a 3e 36 f4 10 40 c8 75 43 c0
       0.22104026 0.1977713 2.2649055 -3.0540638
0003e0 1f 68 1e 3f a8 c3 54 be 5d 8c da be 71 54 4e 3f
       0.61877626 -0.20777762 -0.42685214 0.805976
0003f0 0b c8 85 3f c2 2b 35 bf fa 4a 6c 3f 48 ee 08 40
       1.0451673 -0.70769894 0.92301905 2.1395435

conv1.bias f4 [16]
000000 f4 96 87 3f 9e b5 a0 be b0 a5 f5 3c 1e d1 ce 3d
       1.0592942 -0.31388563 0.029986233 0.1009848
000010 0e 1d 03 3f 6d 0c 1f bf 7d 33 19 3e 66 dc 7c bf
       0.5121621 -0.62128335 0.14961047 -0.987738
000020 2b 1c a1 be 3c a7 a5 be 9a f5 11 bf e4 51 be 3f
       -0.31466803 -0.32354152 -0.57015383 1.4868741
000030 ba c2 0e 3f 5e eb 93 3f 57 bf 20 be 05 97 65 3f
       0.5576588 1.1556203 -0.1569799 0.8968356

fc.weight f4 [10, 14400]
000000 ef 67 52 3e df c8 f7 3c 09 48 4d 3d 0b a8 0a be
       0.2054746 0.03024715 0.050117526 -0.13540666
000010 ad 7a 6f be 26 85 97 bd 7c b7 8b 3d d4 90 34 bd
       -0.23386641 -0.07398443 0.06822106 -0.04408343
000020 45 05 bb bd 0f 5c 8d bd ab e1 a2 3c 6a 46 ba bd
       -0.091318645 -0.069023244 0.019882997 -0.09095462
000030 1f ed c9 bb 88 10 28 3c 2c a0 ba bc a0 f7 51 3e
       -0.0061623002 0.010257848 -0.022781454 0.20504618
000040 b4 6c fd 3d 84 0c 81 3d 8a d3 38 3d 2a 13 f0 3d
       0.12374249 0.06301215 0.045123614 0.11722405
000050 59 6f 0f 3e d0 96 f2 3d 5a 48 82 bd 3d 06 88 be
       0.1400732 0.118451715 -0.06361456 -0.2656726
000060 30 ed a0 bd 14 f8 18 bd 83 67 c0 3c 1e a1 01 3e
       -0.0785774 -0.03734596 0.023486858 0.12659118
000070 9f 21 1a 3e a9 01 6d be 9e 32 fd bc c6 e9 0e bd
       0.15051888 -0.23145165 -0.030907925 -0.034890912
000080 e9 f7 e0 bc 60 c5 10 bd 55 ad 2d be 0e 61 5b bd
       -0.027461963 -0.03534448 -0.16960652 -0.053559355
000090 82 00 d2 3d ad ba 4c 3d 79 7b 15 be ec 09 98 bd
       0.10254003 0.049982715 -0.14597882 -0.074237674
0000a0 c4 07 d7 3c 81 66 96 bc 05 f0 22 3e c8 48 9b 3d
       0.02624882 -0.018359425 0.15911873 0.07582241
0000b0 e9 e6 a7 bd 9f 53 29 3e 71 bf b3 3d 48 07 18 3c
       -0.081983395 0.16535805 0.08776749 0.00927908
0000c0 9c 46 9f 3d 0e 9a 71 3d e2 ba f5 bc b9 27 a3 bd
       0.077771395 0.05898481 -0.02999634 -0.07966561
0000d0 d5 c0 40 bd 1c 7c 0f 3d 98 be ae bc c0 ff f9 bb
       -0.0470589 0.03503047 -0.021331117 -0.0076293647
0000e0 7d 46 08 3e bb bc a4 3d 25 48 0b 3e ee 06 e6 bb
       0.13308139 0.0804381 0.1360174 -0.007019869
0000f0 77 84 1d bc 47 25 9e 3d f1 69 93 3d 1a cd 1b 3d
       -0.009614102 0.07721954 0.07197941 0.038037397
000100 55 2f 1d be dc c4 73 bd 1f b5 b0 3d a2 ef b9 3c
       -0.15350087 -0.05951391 0.08628296 0.022697274
000110 06 cc 78 3d 66 68 d7 3c 18 1e 91 3d fe 6e 28 bd
       0.060741447 0.026294898 0.07085818 -0.041121475
000120 8e ca fe bc e0 50 54 be 0f 87 45 be 1f 22 69 3b
       -0.031102445 -0.20733976 -0.19289802 0.0035573316
000130 66 64 7f bd d8 50 45 3d b7 13 e4 3d 16 b7 bb bd
       -0.062351607 0.0481728 0.11136573 -0.0916578
000140 75 18 e9 bd b3 4f a4 bc cd 8d ff 3b 72 f7 51 3e
       -0.11381618 -0.020057535 0.0077988864 0.20504549
000150 a7 d4 d8 bc 17 9e f7 bd ac bf 64 bd 00 85 29 ba
       -0.026468588 -0.120907 -0.055846855 -0.0006466657
000160 04 fd 78 3c d0 1f 14 be 2c be 55 3c 36 8e 80 3a
       0.015197042 -0.1446526 0.013045829 0.0009808007
000170 0e f3 f9 3d d5 7a 6a bd 1a f4 c4 3c 3d 48 e8 3c
       0.12204562 -0.057246048 0.024042178 0.028354758
000180 20 83 b1 3b 37 41 01 bc f7 05 06 3e 3e b6 b1 3d
       0.0054172426 -0.007889084 0.13088213 0.08677338
000190 f9 cc c7 3d 63 e9 65 bd 5a ef 6b 3c b0 8f 85 3d
       0.09755892 -0.056130778 0.014400328 0.06521547
0001a0 4c 65 a9 3c 88 24 a1 3d 11 76 15 3d 83 b4 14 3e
       0.020678185 0.07868296 0.03648955 0.14521985
0001b0 36 dc 5f 3d dd fd 8f ba 1d 89 ef bd c0 e0 85 bd
       0.05465337 -0.0010985691 -0.11696074 -0.06537008
0001c0 69 ca 7a bd 3f f3 96 3d f6 81 73 3c b6 6c c6 3d
       -0.06122819 0.07370614 0.014862528 0.09688704
0001d0 5f b3 82 3d 3e da 64 3d 4b ef 9e 3d 55 35 b0 bd
       0.063818686 0.055872194 0.07760485 -0.08603922
0001e0 46 b7 c8 bd 61 24 9a bd f8 f4 fd bd b9 da d8 bd
       -0.09800582 -0.0752647 -0.1240024 -0.10588593
0001f0 69 c0 7e 3c 66 a1 75 3d 88 05 dd 3d ed ba 10 3d
       0.015548804 0.059968375 0.107920706 0.035334516
000200 ff b5 e6 3c 0b 38 a4 3d e8 31 01 3e c3 6b 80 3d
       0.028162954 0.08018502 0.12616694 0.06270554
000210 b8 8c 01 3d 28 85 f9 3d 27 e3 f1 bb 17 10 31 be
       0.03162834 0.12183601 -0.007381815 -0.17291294
000220 9d 63 02 3e f0 3b 83 3e 85 4f 96 3d 45 4f 8b bd
       0.12733312 0.25631666 0.07339386 -0.06802229
000230 8f c7 e9 bd 8b 54 a3 3d 29 de f6 bc 72 f7 5d 3e
       -0.11415016 0.0797511 -0.030135231 0.21676424
000240 e6 ff 49 3d 17 9f b9 3b 0a a1 0f 3e 6e d3 9c bc
       0.04931631 0.005664717 0.14026275 -0.019143786
000250 7f bd 49 3c 16 66 6d bd 21 64 8a 3d 4a dd 03 3e
       0.012313246 -0.057958685 0.06757379 0.12877384
000260 6a ca 14 3d 95 f4 33 bd 51 d3 49 be cc 2d 13 be
       0.03632585 -0.043934423 -0.19709517 -0.14372939
000270 27 d6 74 bd d6 6c bd bd f4 6d 16 bd 76 66 e8 3d
       -0.059774544 -0.092492744 -0.036725953 0.11347668
000280 57 58 3d bd 32 b6 94 be 90 d2 02 be 29 2a 34 bd
       -0.046226826 -0.29045254 -0.12775636 -0.04398552
000290 a2 39 4b bd ae 7a 47 be be b3 1b be af 10 49 3e
       -0.04961551 -0.19480392 -0.15205285 0.1963527
0002a0 6f bd 78 3e a0 6d f7 3b 9b 97 74 3d bc 75 c8 3d
       0.24291013 0.00755091 0.059714895 0.09788081
0002b0 5d 76 8f bc d2 df 15 3d ac 41 bf 3d 4b f8 2f be
       -0.017512495 0.036590405 0.09338698 -0.1718456
0002c0 ff 28 9d 3c 0a b0 a2 bd 0c 22 f6 bd 7b 65 67 be
       0.019184588 -0.07943733 -0.12018213 -0.22597305
0002d0 0e 76 97 bc e0 3f e4 3c f0 33 20 bd 43 90 61 be
       -0.01848891 0.02786249 -0.03911203 -0.22027688
0002e0 9a de b9 bd ee 5e 98 bd da 3c 01 3d 3b 54 d9 bc
       -0.09075661 -0.074399814 0.031552173 -0.026529422
0002f0 a0 c7 f0 3c 3b 14 23 3e 29 8f 58 3e 12 3d bd bd
       0.029392064 0.15925686 0.21148361 -0.09240164
000300 1f 1d 86 3c d0 26 52 bc 55 ca 6b bd c1 05 82 bd
       0.016371308 -0.012826636 -0.057566006 -0.06348754
000310 d4 03 75 bd 0f f2 e5 bc ca 28 c8 bd 4e 9b 3b 3e
       -0.059818104 -0.028069524 -0.09773405 0.18320963
000320 63 76 76 3d 25 89 36 3d 6e d9 5a be 3d 8b 44 3d
       0.060171496 0.044564385 -0.21372005 0.04798435
000330 af 6f 4a 3e 07 51 86 bc cd 94 33 3e 25 00 9d 3e
       0.19769166 -0.016396059 0.17537232 0.30664173
000340 b8 ba a1 3d 46 f3 07 be 25 30 15 be ef 35 ef bd
       0.07896942 -0.13276395 -0.14569147 -0.11680209
000350 7e 4d 66 be 21 a7 08 be 17 4a c4 bc 45 bd 39 be
       -0.22490498 -0.13345005 -0.02396111 -0.18138607
000360 9c 5b d4 3d 28 31 23 bd b2 ca 0a bd 88 8d 5f bd
       0.103690356 -0.0398418 -0.03388471 -0.054578334
000370 e1 5d 39 bd 14 12 cf 3d f4 11 97 3d a9 4b ef 3c
       -0.045255546 0.1011087 0.07376471 0.029210882
000380 27 0c 06 3e 2c 9d 20 3e 4d 4a ff bc a0 e8 8c bc
       0.13090573 0.15684956 -0.031163359 -0.017200768
000390 de 40 e3 bd 42 63 ec 3d 11 11 b1 3d 27 24 89 3c
       -0.11096357 0.115423694 0.08645833 0.016740872
0003a0 db f6 8d bc ca 60 ec bd 43 e4 0d bd 3f 40 b5 bd
       -0.017329624 -0.115418985 -0.034641515 -0.088501446
0003b0 62 c3 d7 3c e8 25 ef 3c 56 91 91 3d b9 18 4b 3b
       0.026338283 0.02919288 0.07107799 0.0030990078
0003c0 a6 65 28 3b ed c6 c5 3d de c0 e2 3c 7d 58 27 3c
       0.0025695353 0.09657083 0.027679857 0.010213968
0003d0 cd 3a eb bd 73 9e 8a bc ba e6 34 bd 21 ad 7d bd
       -0.11485825 -0.016921258 -0.04416535 -0.061932687
0003e0 d8 92 f8 bd 61 8d e4 bd f8 23 5e bd 89 c6 88 3d
       -0.12137383 -0.111597784 -0.05423352 0.066784926
0003f0 6b 0f 4d 3e df e2 d6 bc 25 43 7c bd 94 50 fe bc
       0.20025413 -0.026231227 -0.06158747 -0.031044282

fc.bias f4 [10]
000000 15 ce 0e bf 20 7e 76 c0 a6 32 e1 3f 67 ab a7 3f
       -0.55783206 -3.851448 1.7593582 1.3099183
000010 ed b3 52 40 a6 0a d0 3e 1f fd bb bd a7 5c 7e bf
       3.2922318 0.40633124 -0.091791384 -0.99360126
000020 20 42 aa 3f 87 1b 28 c0
       1.330143 -2.6266801
