openfhe/notebooks/lenet_8/best.pth (torch, 290744 bytes, 4 tensors)

conv1.weight f4 [8, 3, 3, 3]
0	0x4037a160	2.8692245
1	0xbf88805c	-1.0664172
2	0xbf0dc1de	-0.5537394
3	0xbf65c519	-0.8975387
4	0xbfc3effa	-1.530761
5	0x3febee0b	1.843202
6	0xbf569dac	-0.8383434
7	0x400da727	2.2133272
8	0xbfb0cd56	-1.3812664
9	0xbe19a748	-0.15005219
10	0xc01bf91c	-2.4370794
11	0x3e1d0328	0.15333235
12	0xbffb41b2	-1.9629424
13	0xbfcc66d5	-1.5968882
14	0x404abfbe	3.167953
15	0xbebceda2	-0.3690005
16	0x400ccd05	2.2000134
17	0x3e9b3ea8	0.3032124
18	0x4040e524	3.0139856
19	0xbef1b7c1	-0.47210506
20	0xbd05916a	-0.03260938
21	0x3e80c578	0.25150657
22	0xbfca3a74	-1.5799088
23	0x3f586522	0.84529316
24	0x3e794a62	0.24344781
25	0x3f65b98d	0.89736253
26	0xc01febcf	-2.4987676
27	0xbf7101db	-0.94143456
28	0x3f6f59db	0.93496484
29	0xbeda51c9	-0.42640522
30	0x3ecdd9ea	0.40205318
31	0x3fd5ad3e	1.6693494
32	0xbee7fb62	-0.45308977
33	0x3fe46b5a	1.7845261
34	0xc01cfad9	-2.4528105
35	0xbff3cb31	-1.9046384
36	0xbfb7d100	-1.4360657
37	0x3e852ce9	0.26010826
38	0xbe2f4365	-0.17115553
39	0xbeeecbe5	-0.46639934
40	0x3f8b598f	1.0886706
41	0xbe986baa	-0.2976964
42	0x3f685c13	0.90765494
43	0xbf4cb4f2	-0.799636
44	0xbcbcc1b3	-0.023041582
45	0xbed600fc	-0.41797626
46	0x3f4f5f1a	0.8100449
47	0x3f49fea2	0.78904164
48	0xbf98e727	-1.1945542
49	0x3dbabc7b	0.09117981
50	0x3f64b6eb	0.8934161
51	0x3fde1e56	1.7353008
52	0xbf44c4ac	-0.768626
53	0x3f06340b	0.5242316
54	0xbee09d39	-0.4386995
55	0x3e6c97be	0.2310476
56	0xbe0fe972	-0.14053896
57	0xc0007758	-2.0072842
58	0xbf58b6b4	-0.8465378
59	0x3f813c15	1.009646
60	0x405cbc00	3.4489746
61	0xbf384a30	-0.719882
62	0xbf6cc261	-0.924841
63	0xbede052f	-0.4336333
64	0x3fd5bf06	1.6698921
65	0xbe4f0e2f	-0.20220254
66	0xc01c2d7a	-2.4402757
67	0xbee38249	-0.44435337
68	0x3ff119bd	1.883598
69	0x4043b625	3.0579922
70	0xbfd4337f	-1.6578215
71	0xbf9436e8	-1.1579256
72	0x3f81abb3	1.0130523
73	0x3f827078	1.0190573
74	0xbfc06e41	-1.5033647
75	0xbfaff681	-1.3747102
76	0x3f637c72	0.88861763
77	0x401080c6	2.2578597
78	0xbf34a78c	-0.70568156
79	0xbfc633d6	-1.5484569
80	0xbda92118	-0.08258265
81	0xbf23c59f	-0.6397342
82	0x3f66d665	0.9017089
83	0xc0796a36	-3.8971076
84	0x3fe575bc	1.7926555
85	0x3f6ab198	0.91677237
86	0x3f18da51	0.59708124
87	0xbf9ba074	-1.2158341
88	0x404af613	3.1712692
89	0x3f8aebc8	1.0853205
90	0xbf79f108	-0.9763341
91	0x401777c4	2.366685
92	0xbd9064ed	-0.070505
93	0x3fa78668	1.3087893
94	0xbfdccf20	-1.725071
95	0xbeb00adb	-0.34383282
96	0xbdc449ae	-0.09584366
97	0xbe948ac1	-0.2901211
98	0xbf1935d8	-0.59847784
99	0xbfca80d3	-1.5820564
100	0x4033f47b	2.811797
101	0x40061cd8	2.0955105
102	0xbe95469f	-0.29155442
103	0xc069ba72	-3.6520047
104	0xbd5aba14	-0.053400114
105	0x3e7e6aec	0.24845475
106	0xbfa7607b	-1.3076319
107	0xbeeb317e	-0.45936197
108	0x3ef6eb7a	0.4822653
109	0x3e671007	0.22564708
110	0xbed11de1	-0.40843108
111	0x3eb55a29	0.3542035
112	0xbeaa4acc	-0.3326019
113	0x3f81b158	1.0132246
114	0xbd8d2fd7	-0.0689389
115	0xbfa8505e	-1.3149526
116	0xbf59deae	-0.8510541
117	0x3f81374a	1.0094998
118	0xbf0d55cb	-0.55209035
119	0xbf6b30d4	-0.9187138
120	0xbd8a38f9	-0.06749148
121	0xbeb26934	-0.3484589
122	0x3f2e45f6	0.680755
123	0xbe3d7377	-0.18501078
124	0xbd60719c	-0.054795846
125	0x3f975c2f	1.1825007
126	0x3fd1fa0f	1.6404437
127	0xbed31b3a	-0.4123171
128	0xc01958d4	-2.3960466
129	0xc00ba8ca	-2.182177
130	0x3d73eb6e	0.059550695
131	0x3e800f23	0.25011548
132	0xc0082d74	-2.1277742
133	0x3fc6a13f	1.5517958
134	0x3ff95368	1.9478579
135	0xbfe38185	-1.7773901
136	0x403cabe7	2.947992
137	0xbf9cd90a	-1.2253735
138	0x3eb1da36	0.34736794
139	0x40495fed	3.1464798
140	0x3fa58838	1.2932196
141	0xbef4f311	-0.47841695
142	0xbf01f81f	-0.5076923
143	0xc0261ca7	-2.5954988
144	0xbf4d999d	-0.8031252
145	0x3efc7a5b	0.493121
146	0x3eed70c1	0.46375087
147	0x3eca98af	0.39569613
148	0xc045c792	-3.0903058
149	0xbf255929	-0.6458917
150	0x3f2e7365	0.6814483
151	0xbf2eaeb8	-0.6823535
152	0x3daeb7de	0.08531164
153	0x3f454d43	0.7707102
154	0x3f1ac475	0.6045602
155	0x3e401b2a	0.18760362
156	0x4006e189	2.1075156
157	0xc06b9bac	-3.6813765
158	0x3dc733dd	0.09726689
159	0x3ac0303c	0.0014662812
160	0xbf39945e	-0.72492015
161	0x3fa79ede	1.3095357
162	0x3fce6cc3	1.6126941
163	0x40094d90	2.145359
164	0xc05dd0e8	-3.4658756
165	0xbf6a172b	-0.914416
166	0x3f3b89fb	0.73257416
167	0xbe14c034	-0.14526445
168	0xbfa77208	-1.3081675
169	0x3fdb992f	1.7156123
170	0xbdb3b15b	-0.08774062
171	0xbfceb879	-1.6150047
172	0x3fcc3b7c	1.5955653
173	0xbc5bb83b	-0.013410623
174	0xbfb4ff58	-1.4140425
175	0x3ecff486	0.40616244
176	0x3f817e48	1.0116663
177	0xbfbe6fc3	-1.4877857
178	0x3fa7aee6	1.310025
179	0xbe1433f0	-0.14472938
180	0xbfce0663	-1.6095699
181	0x3fb01482	1.3756258
182	0x3f9369c7	1.1516656
183	0xbf74712d	-0.9548519
184	0xbf4bc3e2	-0.7959577
185	0x3ec9b05b	0.3939236
186	0x3f1d5401	0.61456305
187	0x3f99ddf7	1.2020863
188	0xbfa5b43e	-1.294563
189	0x3f1d37f1	0.61413485
190	0x401c8f1a	2.4462342
191	0x3f746a74	0.95474935
192	0xbd512df1	-0.051069204
193	0xbf1b17be	-0.605831
194	0xbf9fd252	-1.248606
195	0xbf917cf9	-1.1366264
196	0xbe945503	-0.2897111
197	0xbf1f2461	-0.62164885
198	0xbf299b33	-0.6625244
199	0x4025668b	2.5843837
200	0xbda04779	-0.07826132
201	0xbfd2dbd3	-1.6473335
202	0xbe93cebc	-0.28868663
203	0xc030b0ee	-2.760799
204	0xbf62191b	-0.8831956
205	0x40443fed	3.0664017
206	0xbbb6af90	-0.005575128
207	0xbe6da64b	-0.23207967
208	0xbe3f96e3	-0.18709902
209	0xbbafb836	-0.005362536
210	0xbea85e9d	-0.32884684
211	0xbf75ad79	-0.95967823
212	0xbeae2f71	-0.3402057
213	0x3e99ca81	0.3003731
214	0x3fcf3688	1.6188517
215	0x3ebc8a2b	0.36824164

conv1.bias f4 [8]
0	0xbf004f21	-0.5012074
1	0xbec03eca	-0.37547904
2	0x3dad5c12	0.08464827
3	0xbf18763a	-0.595554
4	0x3f126307	0.57182354
5	0x3f81f593	1.0153068
6	0xbc49358b	-0.012280832
7	0x3e5e2cae	0.21696731

fc.weight f4 [10, 7200]
0	0x3dee1bcf	0.11626398
1	0xbe6946ec	-0.22780961
2	0xbf36d14a	-0.714131
3	0xbf373a22	-0.7157308
4	0x3e2ae773	0.16689853
5	0xbf2f6464	-0.6851256
6	0xbee1a81e	-0.44073576
7	0xbe564817	-0.20925938
8	0xbe861fb6	-0.2619607
9	0xbea19995	-0.31562486
10	0xbc690416	-0.014222166
11	0xbf3f3e9d	-0.74704915
12	0x3d716b43	0.058940183
13	0xbeba72ad	-0.36415616
14	0x3dceb95f	0.100939505
15	0xbeb1ade7	-0.3470299
16	0x3e225e6e	0.15856335
17	0xbe14f4f3	-0.14546566
18	0x3ea43934	0.32074893
19	0xbea7d9e3	-0.32783422
20	0xbdab9ea5	-0.083798684
21	0x3e040101	0.12891008
22	0x3da366a3	0.07978561
23	0xbd8883fa	-0.066657975
24	0xbea5b341	-0.32363322
25	0xbeac34a9	-0.33633927
26	0xbeb24bca	-0.34823447
27	0xbf234b3d	-0.6378668
28	0xbe9639d7	-0.29341003
29	0xbf1ea889	-0.61975914
30	0x3e41904a	0.18902698
31	0xbd9fcc30	-0.078026175
32	0xbd13d117	-0.036088075
33	0xbe9a783b	-0.30169854
34	0xbd8658af	-0.06559884
35	0xbec6ced9	-0.38829687
36	0xbd55ad34	-0.052167132
37	0x3d5c96a6	0.053854607
38	0xbe58862a	-0.2114493
39	0x3e9abeac	0.30223596
40	0xbdc7392d	-0.09727702
41	0xbc908e1d	-0.01764589
42	0xbe5fee6e	-0.21868297
43	0x3e1d8daa	0.15386072
44	0x3ed50841	0.4160786
45	0x3cec7ee0	0.028869092
46	0xbe3e6cdd	-0.18596216
47	0xbe511ab0	-0.20420337
48	0xbbc00dfa	-0.005861041
49	0x3d9f0a66	0.07765655
50	0xbe8bf9d8	-0.27339053
51	0xbe2f36e8	-0.17110789
52	0xbcf354ff	-0.029703615
53	0xbd9e1b4d	-0.07720051
54	0x3d6d7ecc	0.05798225
55	0xbd4ef14b	-0.050523084
56	0x3ece0ad8	0.40242648
57	0x3f165a7f	0.58731836
58	0x3d1141cd	0.035463143
59	0x3cff2f54	0.031150497
60	0x3f0515b6	0.51986253
61	0xbf046248	-0.51712465
62	0xbe9f1e27	-0.31077692
63	0x3d4fb58f	0.050710257
64	0xbebf3ee9	-0.37352684
65	0x3ea03ec2	0.3129788
66	0xbe6da092	-0.23205784
67	0xbe3fad5a	-0.18718472
68	0xbea4536c	-0.32094896
69	0xbe55eded	-0.20891543
70	0xbdf6f483	-0.12058356
71	0xbeec6e8b	-0.46178088
72	0x3dc52f9f	0.09628224
73	0xbf0b14af	-0.54328436
74	0x3e909d4e	0.28245014
75	0x3c74a620	0.014932185
76	0xbe58c7a7	-0.21169911
77	0x3e6332c3	0.22187333
78	0x3d12f19f	0.03587496
79	0x3e132dcc	0.14372939
80	0x3df66099	0.12030143
81	0x3cfd6a34	0.03093443
82	0xbebebffe	-0.37255853
83	0x3e1c0320	0.15235567
84	0x3ec9b859	0.3939846
85	0x3dac69d4	0.084186226
86	0xbdb6ccf7	-0.08925813
87	0xbe491653	-0.19637422
88	0x3e07c341	0.13258077
89	0xbd20ea56	-0.03928598
90	0xbe3fd1b6	-0.18732342
91	0x3e642d39	0.22282876
92	0xbe9a0565	-0.3008224
93	0xbe1d68b3	-0.15371971
94	0xbeb07ed3	-0.3447176
95	0xbe067b2b	-0.13132922
96	0xbe787b46	-0.24265775
97	0xbdf9ab90	-0.12190926
98	0xbd3530f9	-0.044236157
99	0x3e615d0e	0.22008154
100	0x3ce3ae8b	0.02779319
101	0xbe0e530c	-0.13898867
102	0xbe7319be	-0.23740289
103	0x3dbb8351	0.09155906
104	0xbe34b37f	-0.17646597
105	0xbdcde3ab	-0.1005319
106	0x3dfdaede	0.12386869
107	0xbe14589a	-0.14486924
108	0x3e10308d	0.1408102
109	0xbd51e896	-0.0512472
110	0x3dd059cd	0.10173378
111	0x3df6b6b7	0.12046569
112	0x3c27cb79	0.010241383
113	0x3d563756	0.052298866
114	0xbe8ab08b	-0.27087817
115	0xbdf9ba8f	-0.12193786
116	0x3e892fad	0.26794186
117	0x3ede1fcf	0.43383643
118	0x3e6c8a41	0.23099615
119	0x3dad1e82	0.084530845
120	0xbe467c48	-0.19383347
121	0xbf25bbe0	-0.647398
122	0x3c9bc70c	0.019015811
123	0xbe4de95b	-0.2010855
124	0x3ea89830	0.3292861
125	0xbf15e119	-0.58546597
126	0xbe991c42	-0.29904372
127	0xbe0ed3bb	-0.13947956
128	0xbdc2f55c	-0.09519455
129	0xbc72fc37	-0.0148306405
130	0xbdeb5997	-0.11491697
131	0x3e2719b6	0.16318402
132	0xbe5781a9	-0.21045555
133	0xbd558125	-0.052125115
134	0x3e067b84	0.13133055
135	0xbe933167	-0.28748628
136	0x3c3ff1b7	0.011715344
137	0x3e43fe66	0.19140014
138	0xbd9c2f48	-0.07626206
139	0xbc5591a7	-0.0130352145
140	0xbd8a8acc	-0.06764755
141	0x3f17508e	0.5910729
142	0x3e8e57da	0.278014
143	0xbe8be72c	-0.27324808
144	0xbdd9178e	-0.10600196
145	0x3dccffdd	0.100097395
146	0xbd4e0a20	-0.050302625
147	0xbe1bb0a9	-0.15204109
148	0x3f008966	0.50209653
149	0xbebdbe19	-0.37059096
150	0xbe634cb8	-0.22197235
151	0xbeeb6210	-0.45973253
152	0xbd81ab42	-0.06331493
153	0xbda7c83d	-0.08192489
154	0xbe8bd3ac	-0.2730993
155	0x3d9383cc	0.07202873
156	0xbe9a35d6	-0.301192
157	0xbdec0cf7	-0.1152591
158	0xbf213bf4	-0.62982106
159	0x3e0eb5d3	0.13936548
160	0x3e11f6bd	0.1425428
161	0xbe78fccf	-0.24315189
162	0xbe3c18e1	-0.18368866
163	0xbca46503	-0.020067697
164	0x3d05a2bb	0.032625895
165	0x3e5ea150	0.21741223
166	0x3d905ac2	0.07048561
167	0xbe7e845a	-0.24855176
168	0x3ec2553f	0.37955663
169	0xbdef9df7	-0.11700051
170	0x3dfe5f72	0.124205485
171	0xbe26dad7	-0.16294418
172	0xbe3c50a8	-0.18390143
173	0x3d237432	0.039905734
174	0x3eee9705	0.46599594
175	0xbc64c50f	-0.013962998
176	0xbd6d478e	-0.057929568
177	0xbc0c860f	-0.008576884
178	0x3e86dc2a	0.26339847
179	0x3e4e3228	0.2013632
180	0x3cb0ca1a	0.021580745
181	0xbe6ea67a	-0.23305693
182	0x3f0e4b71	0.55583864
183	0xbdfdde44	-0.123959094
184	0xbf07d027	-0.5305199
185	0x3b3cbf53	0.0028800562
186	0x3c813abc	0.015775077
187	0xbe4fc3c8	-0.20289528
188	0x3c27dcfe	0.01024556
189	0xbef919b1	-0.48652413
190	0xbf02661a	-0.50937045
191	0x3d2fd9b7	0.04293224
192	0xbe4db350	-0.20087934
193	0xbe2840fc	-0.1643104
194	0xbd94867a	-0.07252212
195	0x3e96f18b	0.29481158
196	0xbb88219b	-0.0041543967
197	0xbe3b14e1	-0.18269683
198	0x3dfe6233	0.12421074
199	0xbdfb3e4f	-0.12267744
200	0x3eb24aa3	0.34822568
201	0x3e3b3a7f	0.18284033
202	0xbe008888	-0.12552083
203	0x3df00323	0.11719348
204	0x3e79acb3	0.24382286
205	0x3e8299cc	0.25507963
206	0x3edcebbb	0.43148598
207	0xbea46d83	-0.321148
208	0x3db56735	0.08857576
209	0x3ea3ba96	0.3197829
210	0x3e2966d5	0.16543134
211	0xbd835846	-0.06413321
212	0xbdbfbb9f	-0.09361958
213	0xbda80917	-0.08204859
214	0x3d1181bf	0.035524126
215	0xbe298e7a	-0.16558257
216	0xbd109509	-0.03529838
217	0xbda58ce7	-0.080835156
218	0x3ea6a154	0.3254496
219	0x3dfc4aa2	0.123189226
220	0x3eb2baf8	0.3490827
221	0xbda4ee01	-0.08053208
222	0xbebf8a3e	-0.37410158
223	0x3e6bd1dc	0.23029274
224	0x3cb7b6b3	0.022425985
225	0xbde7ae4d	-0.11312542
226	0xbd5d5b5a	-0.054042198
227	0x3cbcf91f	0.023068009
228	0xbe052c22	-0.13005117
229	0xbdc9f8df	-0.098619215
230	0xbe5d16b6	-0.21590695
231	0x3e882e2f	0.26597735
232	0xbdc4b680	-0.096051216
233	0x3cb5217e	0.022110697
234	0x3d253396	0.0403324
235	0x3e663159	0.22479762
236	0xbde09a5d	-0.109669425
237	0xbd8e5658	-0.069500625
238	0xbdda979a	-0.10673447
239	0x3d2d276e	0.04227393
240	0xbd732d3e	-0.05936932
241	0x3b9bc87b	0.0047541237
242	0xbed25c1a	-0.41085893
243	0xbebd95bb	-0.37028298
244	0xbcf9293b	-0.030415168
245	0xbde695f1	-0.11259068
246	0xbed1bbdb	-0.40963635
247	0xbdd91244	-0.10599187
248	0xbd317498	-0.043324083
249	0xbe8f1535	-0.27945867
250	0xbe40ed11	-0.18840434
251	0x3e0b12d8	0.13581407
252	0x3da60a93	0.081074856
253	0x3dbedfeb	0.09320053
254	0xbe292ad4	-0.16520244
255	0x3ea56e52	0.3231073

fc.bias f4 [10]
0	0xbe3c76f0	-0.18404746
1	0xc0d1a9c7	-6.551975
2	0x40355cca	2.8337884
3	0x3fc990f3	1.574736
4	0x408dd6d8	4.432476
5	0x3f58c3a5	0.8467353
6	0x3df31ace	0.11870347
7	0xbef87e2c	-0.48533762
8	0x3fce6da8	1.6127214
9	0xc0857ffb	-4.1718726
